Sequential(
  (0): Conv2d(1, 32, kernel_size=(3, 3), stride=(1, 1), padding=(1, 1))
  (1): ReLU()
  (2): BatchNorm2d(32, eps=1e-05, momentum=0.1, affine=True, track_running_stats=True)
  (3): MaxPool2d(kernel_size=2, stride=2, padding=0, dilation=1, ceil_mode=False)
  (4): Conv2d(32, 64, kernel_size=(3, 3), stride=(1, 1), padding=(1, 1))
  (5): ReLU()
  (6): BatchNorm2d(64, eps=1e-05, momentum=0.1, affine=True, track_running_stats=True)
  (7): MaxPool2d(kernel_size=2, stride=2, padding=0, dilation=1, ceil_mode=False)
  (8): Conv2d(64, 128, kernel_size=(3, 3), stride=(1, 1), padding=(1, 1))
  (9): ReLU()
  (10): BatchNorm2d(128, eps=1e-05, momentum=0.1, affine=True, track_running_stats=True)
  (11): MaxPool2d(kernel_size=2, stride=2, padding=0, dilation=1, ceil_mode=False)
  (12): Conv2d(128, 256, kernel_size=(3, 3), stride=(1, 1), padding=(1, 1))
  (13): ReLU()
  (14): BatchNorm2d(256, eps=1e-05, momentum=0.1, affine=True, track_running_stats=True)
  (15): MaxPool2d(kernel_size=2, stride=2, padding=0, dilation=1, ceil_mode=False)
  (16): Flatten(start_dim=1, end_dim=-1)
  (17): Linear(in_features=1024, out_features=128, bias=True)
  (18): ReLU()
  (19): Dropout(p=0.5, inplace=False)
  (20): Linear(in_features=128, out_features=8, bias=True)
  (21): Softmax(dim=1)
)
Epoch 1, Train Loss: 264.1256, Val Loss: 63.8581
Epoch 2, Train Loss: 250.4377, Val Loss: 66.5864
Epoch 3, Train Loss: 247.4669, Val Loss: 64.9358
Epoch 4, Train Loss: 244.9590, Val Loss: 64.6899
Epoch 5, Train Loss: 242.4696, Val Loss: 61.8848
Epoch 6, Train Loss: 238.5444, Val Loss: 64.2802
Epoch 7, Train Loss: 240.4196, Val Loss: 64.5762
…
